model/model.pth (torch, 16799 bytes, 4 tensors)

linear1.weight f4 [256, 11]
00000000: d7ef a43d 7584 35be ffc5 643e d131 60be
00000010: 6ea4 87bd 8811 b7bb be1b a63d 6bf8 293e
00000020: 56ed a7bd cf17 f7bd 03c8 56ba 4753 9d3c
00000030: 8ada a33e 42e1 73bc badf b43e 5a88 8d3e
00000040: 1240 383d 9965 32be adfb a43e 9075 4f3e
00000050: 8e86 0c3e adee e8bd 69df ea3c f0cd 3bbe
00000060: d3fa be3e b3ff 36be 6bbe 853e 3023 773e
00000070: fe29 58bc f63a 84be 4a82 313e 21d4 243d
00000080: 52ee 153e ca40 cc3e 305f e1bd cae3 413e
00000090: b08c 7fbe 78c6 573d b938 f03d 4eb4 4d3d
000000a0: 81b3 4b3e 3dc4 d3bc babb bbbd 7e6e 15be
000000b0: 0d55 09be 8663 e7bd 595e 373e 2685 8abe
000000c0: 7b8d 2fbe 3002 103d 5952 1c3e a1b0 3a3d
000000d0: 03b6 28be e37c 11be 21d2 c8bb 45ea 1f3d
000000e0: becf 173e bcd8 153e b862 a03e ba7c 5c3e
000000f0: 37ef 563d f132 5c3e 4c1e 883d faf0 6dbc
00000100: 4b47 973e bfcd 39be c532 1d3c 261e 243e
00000110: 5e92 10bd cca6 2b3e c193 473e f141 543e
00000120: 1043 48bd b6a2 0fbe c90e 9b3d 81d2 23be
00000130: 1322 e3bc d7e4 893e a17e 813d 68fa 2abe
00000140: bef9 383d 15ab 183e 2e9d 183e e242 7b3c
00000150: dc27 463e ece0 8a3e cf44 653e cb80 ae3c
00000160: 1711 403e 5ecc b23e 5c91 5a3e 0fe9 4bbe
00000170: abc9 e43d 1bb9 483e 564a 63be cc11 19be
00000180: b775 85bd 4b0b 143e e21f 86be db43 dc3d
00000190: 96ad 15bc 9a6d 1abe 6815 3e3e 9cb5 1d3e
000001a0: 5553 15bd 8529 023e fde7 4f3e 6d73 e3bd
000001b0: 2fd8 353e 3d0a 093e cd18 1ebd 184f 103e
000001c0: 9464 e6bd 483e 82be 4504 693c 4373 5a3e
000001d0: 34bb 2c3d 7ea4 93be 1dd2 3ebe 6f56 823e
000001e0: 8a36 eb3c 2dd8 f73d 2274 cfbd 32c0 1ebe
000001f0: 8551 67be 3b26 9ebd 41e5 1dbe e415 76be
00000200: f149 41be 48cd 963e 102f 3a3e a25e 5cbd
00000210: 3d16 aa3d 35a3 0e3e 8cd4 183e de4d bd3d
00000220: b64b 8b3e 56a9 963b 642d a33e e9b8 8c3b
00000230: 08b8 ce3d 54f2 03be e219 2c3e 0c26 9bbe
00000240: 169f 613d 832f d13d a35f 5a3e a088 a73d
00000250: 39cb 013e 1d9c 103b 39ba 5f3e 7487 643d
00000260: f703 cebd c0c9 aebd 80cd 3abd 3344 583e
00000270: 52a6 95bd 49ba 803e 9d0a 7abe 6311 c93d
00000280: e035 853e dc3e cfbd 4f28 223e bef4 2bbe
00000290: c3a5 a9bd 86d1 2fbc 28a3 6abd 6d94 7a3e
000002a0: 2a96 21bd 4849 2dbe c015 83bd 3293 edbd
000002b0: 4f84 4c3e 8b90 95be 3803 633e 268a ec3d
000002c0: b074 3c3c 8524 b2bd 590a 133e 5e94 813e
000002d0: f608 2cbe 7512 9abe ba01 8a3d 347a d83c
000002e0: 868a 94be 52a8 a13e 9ee0 64bd 3cec 843e
000002f0: 24ab 903e 49e9 293e 83d6 bd3e 2d5a 473e
00000300: 572a ae3e 2498 153d 72f6 0ebe 0b51 b23d
00000310: 0ff7 573e f2ed 3bbe 794f 573e 34a9 31be
00000320: 8051 b63d 8011 32be bb86 ebbd 67fb babe
00000330: a287 a0bd bf83 9e3e 79db 93bd 6bb2 693e
00000340: b0af 56bd ffd2 093e 6caf 063d a592 363e
00000350: 9292 e3bd ca27 3b3e 66cb 15be 0062 19be
00000360: 5038 bd3d 2ad8 b03d 423e 97be a10e 7bbc
00000370: 52ac acbe e6e6 6cbd 03ba 59be be2b f1bc
00000380: c5f5 b3bd eda3 7fbe 9381 28bd 4b76 cf3d
00000390: 5a1a c03c 9ebf 433b c83c 123e d218 03be
000003a0: 4d2c 57be 523d 8d3c 5a10 213e ef96 c03e
000003b0: e832 5d3e 1673 903e 644a a8bc f531 103e
000003c0: 0fa5 9b3e fa5a 40be c647 6a3e 98d5 6b3e
000003d0: 105b 67bd d5bc 93bd 96c9 98be f51b fc3c
000003e0: 700b 7a3e e239 69bc 9cee 24bd fe47 a33e
000003f0: ba7c cbbd dcf2 713e 6970 03be 18aa 053e
0.08053558 -0.1772631 0.22341155 -0.21894003 -0.06623159 -0.0055868067 0.0811076 0.1659867
-0.08199565 -0.12065088 -0.0008193256 0.019204749 0.3200267 -0.014885249 0.3532694 0.2764309
0.044982977 -0.17421569 0.32223263 0.2025969 0.13723204 -0.11373649 0.028670983 -0.18340278
0.3730074 -0.17870979 0.2612184 0.24134517 -0.0131936055 -0.25826234 0.17334858 0.040241364
0.14641693 0.3989318 -0.11004484 0.18934551 -0.24956012 0.05267951 0.11729569 0.05022078
0.19892694 -0.02585041 -0.091666654 -0.1459293 -0.1341135 -0.112982795 0.17907085 -0.2705471
-0.17143814 0.035158336 0.15265788 0.045578603 -0.16475682 -0.14207797 -0.006128565 0.039041776
0.14825341 0.14633459 0.31325316 0.21531954 0.052474227 0.21503808 0.06646404 -0.014522785
0.2954658 -0.18144892 0.009594624 0.16027126 -0.035295837 0.16762847 0.19489957 0.2072828
-0.04889208 -0.14026913 0.075711794 -0.1599827 -0.027726209 0.26932403 0.06322981 -0.16697085
0.045160048 0.14909013 0.1490371 0.01533577 0.19351143 0.27124727 0.2238953 0.021301648
0.1875652 0.34921545 0.21344513 -0.19913124 0.111712776 0.19601862 -0.22196326 -0.14948195
-0.06516593 0.14457433 -0.261962 0.1075513 -0.009135624 -0.15080872 0.18562853 0.1540131
-0.036456425 0.12711151 0.2030334 -0.11106 0.17758249 0.13382812 -0.03859787 0.14092672
-0.112496525 -0.25438142 0.014222209 0.21333031 0.04217072 -0.28836435 -0.1863484 0.2545657
0.02871253 0.12101779 -0.101295725 -0.15503004 -0.22589691 -0.07722136 -0.15419485 -0.24031788
-0.18875863 0.29453492 0.18182015 -0.053801186 0.08305023 0.13929446 0.1492483 0.092433676
0.272062 0.004597823 0.31870568 0.004294504 0.10093695 -0.1288541 0.16806749 -0.30302465
0.055083357 0.1021414 0.21325545 0.08180356 0.1267518 0.0022065707 0.21848382 0.05579324
-0.1005935 -0.085345745 -0.045606136 0.21119766 -0.07307114 0.25142124 -0.24418111 0.098177694
0.26017666 -0.10119411 0.15835689 -0.1679258 -0.0828357 -0.010731107 -0.057284504 0.24470682
-0.03944985 -0.16922486 -0.06400633 -0.11600341 0.19972347 -0.2921184 0.22169197 0.11549787
0.01150243 -0.08698372 0.14359416 0.25308508 -0.16800293 -0.30092207 0.067386106 0.026425458
-0.29011935 0.3157373 -0.055878274 0.25961483 0.2825557 0.16592897 0.37077722 0.19467993
0.34016678 0.036522046 -0.13961199 0.08706864 0.21090339 -0.18352488 0.2102641 -0.17349702
0.08902264 -0.17389488 -0.11500307 -0.3651993 -0.0783837 0.3095989 -0.072195955 0.22821967
-0.052413642 0.13459395 0.03288214 0.17829378 -0.111119404 0.18276897 -0.14628372 -0.1497879
0.092392564 0.0863498 -0.29539686 -0.015323312 -0.3372522 -0.05783739 -0.21262364 -0.029439803
-0.08787111 -0.24964876 -0.041139197 0.101299845 0.023450065 0.0029868851 0.14280999 -0.12802437
-0.21012993 0.017241154 0.15728894 0.37615153 0.2160145 0.28212804 -0.020543285 0.14081557
0.30399367 -0.18784705 0.22878942 0.23030698 -0.05648333 -0.07213751 -0.29841298 0.03077505
0.24418426 -0.014234992 -0.040266618 0.31890863 -0.09935899 0.236278 -0.1283585 0.13053167

linear1.bias f4 [256]
00000000: 6619 abbe 1069 c33e 8895 af3e fc97 4c3e
00000010: 52cf 52be dde7 17be 8dfc 3abe b945 f23d
00000020: bfaf 81be 6100 57be 5260 a43d bceb fbbd
00000030: 20c3 a73e 2e01 a63d b248 2dbe d048 a4be
00000040: bb89 ef3d c7dd ba3e cc8c 9b3e fed6 8bbe
00000050: b9dd 513e 1aa0 42be 4f3f 83be 49eb 093d
00000060: a28f 6d3e a828 b83e 97a0 293e 6f73 393d
00000070: ac70 05be 49a8 3b3e c8b9 933e b4b7 a43c
00000080: f2ff 8fbe 5754 173d 4237 f73d 6b98 8dbe
00000090: 1eeb cebd 98a2 313d ddc4 fdbd 8277 003d
000000a0: 8ca5 063e 21a2 a8bd ffa8 583d ae4b 53bc
000000b0: b902 6b3e 8a16 8f3e 28f9 8dbe ce09 f63c
000000c0: 2893 b63d 4fc3 583e 5e9b f7bc 8274 913e
000000d0: a454 03bd 8913 793e c842 7a3e bf0b 373e
000000e0: 65b1 d33d 41b8 73be cb21 06be 9238 45be
000000f0: 0b3d 193e edc0 dbbd 167d cebd 60fd 623e
00000100: ce7d 8bbe 209b 733e 8959 463d 58b8 3dbe
00000110: a83a 4b3e 20f0 cf3d 191a 983e 36ab ec3d
00000120: daa8 85be 6320 393e 10e4 ecbd 32a8 c43d
00000130: 2fdd 7d3e 4845 64be e5f5 08bd 4d07 b23e
00000140: b928 263e 9650 213e e6a9 e9bd 8bf6 e8bd
00000150: 5838 9abd d040 17be e37f fe3b 0ecd 1e3e
00000160: 3ecc 343e e757 dd3d b071 b5bb 469c 2c3d
00000170: 341d 2b3e 4a2c 963e b774 813e 7777 40be
00000180: c3ec 3ebe 8c7a 75bd 835d 753e 5e1d 11be
00000190: 69f6 563d 6346 9fbe 4fcc 85be b836 59be
000001a0: 7d88 bb3e d42a a53c d69a b03e 21dc 7f3e
000001b0: f669 513e 2b64 14be 4377 11be 192c d43e
000001c0: a459 8bbe d28d 4fbe 30fd 063e a001 32be
000001d0: 454a aebd 6929 8abe 9bd0 68bd 6f0b 3fbe
000001e0: c107 c23e e27e 4dbe 9e93 c73e 9047 0dbe
000001f0: 22d3 08be 863a 9a3e 7f64 343e d773 3c3e
00000200: 3e9c 673e 0f22 29be 25da 5c3e 5abc 2dbe
00000210: b76b 693e 57dd f7bd 3c86 03be 7291 6fbe
00000220: edb0 b63e aee2 473e 10af 843e b483 cdbd
00000230: d025 57be 82df adbd 4e52 3ebe 719d 953e
00000240: a937 b9bd eb4b 5cbd e0c1 533d 2d56 58be
00000250: e296 4e3e da25 743e e4fc 103e cb7f c8bd
00000260: 5bec 35be b7fc 3bbe 153d e3bd 891d 693e
00000270: a3f7 bf3e 4709 b6bc 00cd 583e 8ef1 963c
00000280: 4fc9 c3bd 4856 92be 2599 8bbd 52d1 5f3e
00000290: 7cdd 4f3e 790e e7bd e996 943d 24e3 763e
000002a0: 776c bbbc b3c9 823e 59d3 bf3e 7b0f 333e
000002b0: 7dba 1d3e 0284 00be bc0b 013e 6dc3 7ebe
000002c0: 4799 47be 344a a43e 951d 8f3c 010d 15bd
000002d0: 81c4 95bd 9696 5abe 1152 0cbc ef83 5a3d
000002e0: c529 81bd d9bc 163e 212b da3b 202d 1a3e
000002f0: 8228 923e 7c02 98be 6cb6 3dbe 58a6 83be
00000300: babd 72be cf87 e33d 1c72 c9bd 0778 47be
00000310: 157e 343e 539c 703e 8e54 393d 0af9 41be
00000320: bef1 b5bd 6591 48be 01ed d9bd 6f79 d2bb
00000330: 616f 333e 43f6 f1bd 96fa ccbd 6ec1 4d3c
00000340: 77c3 d5bd 3f3f a6bc 78c6 49be 8fe3 81bd
00000350: a686 18be d4b4 c43e f099 40be 2cfb af3c
00000360: 1e19 483e 1998 cd3e 6211 203e 934a 343d
00000370: 8878 553e 8aac 3a3e eb6c 6b3e 2148 ef3c
00000380: 26f5 a4bd dabd df3d 8b15 96bd 345d 663e
00000390: 5243 fabd e07c 993c e245 3cbe b35d 873e
000003a0: 02ad 81be fddd 7c3d 8b19 b7bc 3c10 febd
000003b0: 661f 213e 6f34 0fbe 6d75 38be 5dc6 bf3d
000003c0: ee58 98be 1061 183d f662 1d3e a8c1 debd
000003d0: 64c7 73be 6cf6 0abe 11d9 77bd 665a 3b3d
000003e0: 3789 913e 4826 363d c12b b83d 9835 733e
000003f0: 0197 873d 765b 64be 5690 56be 0e6d 70be
-0.33417815 0.38166094 0.3429377 0.19979852 -0.20586899 -0.14834543 -0.18260403 0.11829705
-0.25329396 -0.20996238 0.08026184 -0.12300822 0.32766056 0.08105694 -0.16922262 -0.32086802
0.11696192 0.36497328 0.30380857 -0.27312464 0.20494737 -0.19006386 -0.25634238 0.03367165
0.23199323 0.35968518 0.16565166 0.0452761 -0.13031262 0.18325914 0.28852677 0.020107128
-0.28124958 0.036945667 0.120710865 -0.27655348 -0.10103439 0.043367952 -0.12391064 0.03136397
0.13149089 -0.08234049 0.052895542 -0.012896461 0.22950257 0.27946883 -0.27729154 0.030033972
0.089147866 0.21168254 -0.030225452 0.284092 -0.03206314 0.24323858 0.24439538 0.17875575
0.1033657 -0.23800756 -0.13098828 -0.19259861 0.14964692 -0.10730157 -0.10082452 0.22166967
-0.2724442 0.23789644 0.04842523 -0.18527353 0.19846594 0.10153222 0.2970741 0.115560934
-0.26105386 0.18078761 -0.11566937 0.09602393 0.24791406 -0.22292054 -0.03343763 0.34771195
0.16226472 0.15753397 -0.11409359 -0.11375149 -0.07530278 -0.14770818 0.00776671 0.1550791
0.17656037 0.10807782 -0.0055372342 0.04214122 0.16710359 0.29330665 0.2528436 -0.18795572
-0.18645005 -0.059931323 0.23961453 -0.14171359 0.05248109 -0.31108388 -0.26132438 -0.2121228
0.3662757 0.020162024 0.3449313 0.24986316 0.20450577 -0.14491336 -0.14205651 0.41439894
-0.27216828 -0.20268944 0.13182521 -0.17383432 -0.085102595 -0.26984718 -0.056839567 -0.18656705
0.3789654 -0.20067933 0.3897981 -0.1379683 -0.13361791 0.30122775 0.17616461 0.18403564
0.22618195 -0.16516899 0.2156759 -0.16966382 0.22794996 -0.12102764 -0.12844175 -0.23395327
0.3568186 0.19520065 0.25914812 -0.10034886 -0.21010518 -0.08489896 -0.18586084 0.2922168
-0.090438195 -0.05378334 0.051698565 -0.21126623 0.20174745 0.23842564 0.1415897 -0.097899996
-0.17765944 -0.18358122 -0.11095635 0.22765173 0.3749362 -0.02222122 0.21171951 0.01842573
-0.09559881 -0.28581452 -0.068163194 0.21857193 0.20299333 -0.11282057 0.07255346 0.24110085
-0.022878869 0.2554451 0.37465933 0.17486374 0.15403171 -0.12550357 0.12602133 -0.24879237
-0.19492064 0.32087862 0.01747016 -0.036389355 -0.07312871 -0.21346506 -0.008564488 0.053348478
-0.06306795 0.14720477 0.0066579734 0.15056276 0.2854653 -0.29689395 -0.1852662 -0.25712848
-0.23705187 0.11109888 -0.09836218 -0.1947938 0.17626221 0.23497133 0.045246653 -0.18942657
-0.08883999 -0.19586714 -0.10640908 -0.0064231674 0.17522956 -0.11814549 -0.10008733 0.012558324
-0.104376726 -0.02029383 -0.19704616 -0.063422315 -0.14895114 0.3841921 -0.18808722 0.021482073
0.19540831 0.40155104 0.15631631 0.044016432 0.2084676 0.18229881 0.22990768 0.029209198
-0.08054571 0.10924883 -0.07328328 0.22496492 -0.122198716 0.018736303 -0.18386033 0.26438674
-0.25327307 0.061735142 -0.022351047 -0.1240544 0.15734634 -0.13984846 -0.18013544 0.09364007
-0.29755348 0.03720194 0.15369782 -0.10876781 -0.2380653 -0.13570565 -0.060509745 0.045740508
0.28425 0.0444701 0.089927204 0.23750913 0.066205986 -0.22300515 -0.20953497 -0.23479101

linear2.weight f4 [3, 256]
00000000: dfdd 223d 8c1e f5bd be03 80bd cda2 ecbd
00000010: 7f51 9d3b 052f 2fbd 6c5e 473c 9b26 d6bd
00000020: 31f6 3cbc 3f9d 15bd 4afd 603c 2323 55bd
00000030: da3d ecbd e75d d83d 034a 2f3d 4a89 1d3a
00000040: 6004 9dbd 76ea 07be 02c7 49bd ec32 a7bb
00000050: adfc 023e cf30 b9bd 3dbb 6ebc 37fc 3d3c
00000060: d4cf 9ebd b43c a5bd 16e5 69bd a8e8 cabd
00000070: c5b5 c2bd 640d 22bd 4662 e83c b7c2 b5ba
00000080: d7e1 873d b119 d1bd 0a80 d93c c021 2b3c
00000090: 266c c0bc 0f70 d83d d1a0 b33c a0ce a8bd
000000a0: 9869 24bd 806a cc3b 657d 1bbe 5bcf bbbd
000000b0: ee71 d1bd a34d 95bd 404a 39bd a464 573d
000000c0: 9f4e fabd 5832 a1bd f3b1 ccbd bdc0 a7bd
000000d0: 82f5 563c 327c dd3c cebe 49bd ed1e 0cbb
000000e0: 51d7 753c 7a14 64bc e854 b3bd f9a7 3c3b
000000f0: 7449 89bb 5a77 56bd fcc9 a73d c7fa 8fbd
00000100: 3232 6fbd 998c c3bd ac4b 5fbd 4368 3dbb
00000110: 74b9 59bc 1227 0cbd 3aac bfbd 79e1 a3bc
00000120: b9d7 1c3d aff1 ddbd 5fff 063e de60 09be
00000130: a041 c5bb f420 06bc 03da 163d 0f22 f0bd
00000140: 0848 b1bd 9039 b7bc 8741 263d 2c02 d8bc
00000150: a5ad babd 634e f3bc 9035 a63d 72b1 bbbc
00000160: 5d72 d3bd 3f08 cfbd 9a49 9fbb 9949 d83c
00000170: 9dc8 b8bd 2478 77bd 8843 d7bd 1ee7 003d
00000180: 43ac 93bd de7a 31bc 7a95 e3bd 2f5e 48bb
00000190: f89e 803b 076e 58bc 3998 ca3c 005a 7f3c
000001a0: c5fd c0bd b8e5 02bd 42f0 c0bd 8034 f03c
000001b0: 69bf 093d e4e5 d73d 804e b03a cfcf b3bd
000001c0: 9a5d 3abd 670e c33c a0e4 b3bd 1d3a fe3d
000001d0: 6e3e f6bc 5a59 9dbd f23f 13bd e7ec febc
000001e0: 0e52 0dbe 02d9 8e3d b752 c9bd 969b 38bd
000001f0: 70cc 5b3d 5c93 76bc 9a15 f1bc cdfa 74bd
00000200: f6c4 063e f12f 543d 4d84 1abd 4809 d6bd
00000210: 6a4d 6f3d e521 993c e768 babd 6633 1fbd
00000220: 49db 6fbd 237c 903b 0b0f fcbd d037 353e
00000230: 2632 7ebb a639 143e 0a54 0dbd 7672 07be
00000240: 19cd 56bd cdd1 a2bc 07b6 94bd ce9a a93c
00000250: c297 52bd 9525 09bc 3736 aebd 9a1f 11bd
00000260: 495d 07be 7043 143b 0649 8b3d f228 98bd
00000270: 817d c7bd bc7c 71bd 895b abbd 3cc2 df3d
00000280: 072b 41bd 080f 27bc 0ff4 8abd 2a0f 94bc
00000290: f7f7 d5bc d640 a5bd b252 fbbd dbc0 dcbd
000002a0: a803 c8bc ccd9 64bd 4ed6 71bd a3d5 03be
000002b0: c16e 16bd bb0b 64bd cec6 d8bd 0a9f a6bd
000002c0: 9b4c 273e 4cd2 0abe af28 90bd dd48 11bd
000002d0: afff 53bc e4c9 4a3c 2171 56bd ae3a a4ba
000002e0: 7edd 48bd 3ae0 ccbd 83f9 dbbc 4e84 c7bd
000002f0: 8a26 ccbd 2b5f ee3c 7446 d8bc aa35 b83c
00000300: 9fc2 a33d 7e01 14bd af07 ef3b e3ce 263d
00000310: c91a 9bbc 178d 04be b844 8ebd 57b2 443d
00000320: 872c bcbd 213b 9ebd 36d0 bfbc 3290 b7bc
00000330: 00e4 b2bd 468e 9dbd df7a 64bd 5911 8cbd
00000340: 93ce 68bd 7203 eb3c 73a1 583d 7755 3f3c
00000350: 3fda 91bb 9725 05be ea1b e5bd 6efa 363d
00000360: 9fe0 8bbb 0c90 c5bd 16da 00be 8320 5abb
00000370: bffa a4bd 638e 4cbc ee03 c23c d930 bfbd
00000380: d0d8 17bd d21d 723c 409e 993c 52a1 7e3c
00000390: 1b58 abbc d94c 34bc 530d ac3c 55f9 06be
000003a0: d095 f7bb baa3 c8bd 486d d43d 2636 76bd
000003b0: 495a babd 127e c6bd d160 f5bc 5c11 3abb
000003c0: 74ef bbb9 d6a3 33bc fd3d 4f3d f893 b63a
000003d0: 664f b13d 480f 97bd 35fb 87bd 1d86 1ebc
000003e0: 2cde 37bd 2ed2 01bd ac47 bcbc 7bae 49bc
000003f0: 3713 2bbc 36d4 46bd 8350 443d e146 29bd
0.039762374 -0.11968717 -0.06250714 -0.11554489 0.004800975 -0.04276945 0.012168508 -0.10456582
-0.011533306 -0.036526915 0.013732264 -0.052035462 -0.11535235 0.105647855 0.042795192 0.00060095324
-0.0766685 -0.13273033 -0.049262054 -0.005102506 0.127917 -0.090425126 -0.014571008 0.011595777
-0.07754484 -0.08068219 -0.05710324 -0.09907657 -0.09507326 -0.03956355 0.028367173 -0.0013867234
0.066348724 -0.10209978 0.026550312 0.010445058 -0.02348907 0.105682485 0.02192727 -0.082425356
-0.040139765 0.0062382817 -0.15184553 -0.09170409 -0.102268085 -0.07290199 -0.045236826 0.052586213
-0.12222027 -0.078709304 -0.099948786 -0.08191059 0.013120057 0.02703676 -0.04925423 -0.0021380738
0.015004949 -0.013920898 -0.08756429 0.0028786643 -0.0041896645 -0.052359916 0.08192822 -0.07030254
-0.05839748 -0.09548301 -0.054515526 -0.0028901256 -0.013288844 -0.034216948 -0.093590215 -0.020004975
0.038291667 -0.10837113 0.13183354 -0.13415858 -0.006019786 -0.008186568 0.036829006 -0.11725246
-0.08656317 -0.022366315 0.040589835 -0.026368223 -0.09115151 -0.029700464 0.08115685 -0.022911761
-0.103245474 -0.10108995 -0.004861069 0.026402282 -0.09022639 -0.06041731 -0.105109274 0.03147041
-0.07210591 -0.0108325165 -0.11112495 -0.0030573716 0.0039252006 -0.013209826 0.024730789 0.0155854225
-0.09423403 -0.031957358 -0.094208255 0.029321909 0.03362981 0.10541895 0.0013451129 -0.08779871
-0.04549942 0.023810579 -0.08783841 0.12413428 -0.030059066 -0.07683058 -0.035949655 -0.031118823
-0.13800833 0.06974985 -0.0983023 -0.045070253 0.053661764 -0.015049782 -0.029429246 -0.059809495
0.13161072 0.051803533 -0.037723828 -0.10450989 0.058423437 0.01869292 -0.0910204 -0.038867377
-0.058558736 0.0044093295 -0.12307557 0.17697072 -0.0038787215 0.14475116 -0.034503974 -0.13227257
-0.05244169 -0.019875431 -0.072612815 0.0207037 -0.05141426 -0.008370777 -0.085064344 -0.03543053
-0.13219179 0.0022623204 0.068010375 -0.07429685 -0.09740735 -0.058956847 -0.08367068 0.10925719
-0.047160175 -0.010196455 -0.06784832 -0.018073637 -0.026119215 -0.08069007 -0.12271632 -0.10778972
-0.024415806 -0.05587177 -0.059042268 -0.12874465 -0.036726717 -0.05567525 -0.10584794 -0.08135803
0.16337816 -0.13556784 -0.0703901 -0.03546988 -0.012939378 0.012377236 -0.052353982 -0.0012529695
-0.049039356 -0.10003705 -0.026852375 -0.09742032 -0.09968288 0.029098114 -0.026400782 0.022486527
0.079961054 -0.036134236 0.007294617 0.040724646 -0.01893367 -0.12944447 -0.06946701 0.04802164
-0.091881804 -0.07726122 -0.023414712 -0.022407625 -0.08734894 -0.07693152 -0.05578124 -0.06839246
-0.05683763 0.028688166 0.052888345 0.011678091 -0.004451066 -0.1300262 -0.11186965 0.044672422
-0.0042687203 -0.096466154 -0.12583193 -0.0033283539 -0.080556385 -0.0124851195 0.023683514 -0.09335489
-0.037072003 0.0147776175 0.018752217 0.015541391 -0.020916035 -0.01100465 0.021002447 -0.1318105
-0.007555701 -0.09796853 0.10372406 -0.060110234 -0.09099252 -0.09692015 -0.029953392 -0.0028391695
-0.00035845826 -0.0109643545 0.050596226 0.0013929596 0.08657722 -0.073759615 -0.06639711 -0.00967553
-0.044889614 -0.031694584 -0.022983395 -0.012309666 -0.010441593 -0.048542224 0.047928344 -0.04132736

linear2.bias f4 [3]
00000000: 5d54 7ebb b1ac 90bc 3b8d 8ebd
-0.0038807609 -0.01766047 -0.06960531
